…
我们将其灰度值按行依次存储到一个 1 * 784 的数组中； 输入数据形如 (0, 0, 0,\u0026hellip;, 84, 185, 159,\u0026hellip;, 170, 52,\u0026hellip;, 0, 0)，我们可以将每张图片（每个向量）理解为一个 784 维空间的中向量； 通过正则化后，输入数据每个维度区间变为 [0, 1]； 编码层将输入的 784 维向量抽象为 128、64、32 维向量（dense，dense_1，dense_2）； 1 2 3 4 5 6 7 8 9 10 11 12 13 14 15 16 Model: \u0026#34;functional_3\u0026#34; _________________________________________________________________ Layer (type) Output Shape Param # ================================================================= input_1 (InputLayer) [(None, 784)] 0 _________________________________________________________________ dense (Dense) (None, 128) 100480 _________________________________________________________________ dense_1 (Dense) (None, 64) 8256 _________________________________________________________________ dense_2 (Dense) (None, 32) 2080 ================================================================= Total params: 110,816 Trainable params: 110,816 Non-trainable params: 0 _________________________________________________________________ 解码层将抽象后的 32 维向量还原维 64、128、784 维向量（dense_3，dense_4，dense_5）； 1 2 3 4 5 6 7 8 9 10 11 12 13 14 15 16 17 18 19 20 21 22 Model: \u0026#34;functional_1\u0026#34; _________________________________________________________________ Layer (type) Output Shape Param # ================================================================= input_1 (InputLayer) [(None, 784)] 0 _________________________________________________________________ dense (Dense) (None, 128) 100480 _________________________________________________________________ dense_1 (Dense) (None, 64) 8256 _________________________________________________________________ dense_2 (Dense) (None, 32) 2080 _________________________________________________________________ dense_3 (Dense) (None, 64) 2112 _________________________________________________________________ dense_4 (Dense) (None, 128) 8320 _________________________________________________________________ dense_5 (Dense) (None, 784) 101136 ================================================================= Total params: 222,384 Trainable params: 222,384 Non-trainable params: 0 _________________________________________________________________ 训练完成之后，可以在输出内容中看到详细的训练数据，在 50 次训练之后，loss 已经降低到了 0.08。得到的输出图像如下图所示。\n1 2 3 4 5 6 7 8 ...... Epoch 48/50 235/235 [==============================] - 3s 12ms/step - loss: 0.0848 - accuracy: 0.0130 - 
…
